noise_profiler/h-gauss-s20-v1/model_params.npy (npy, 896 bytes, 1 tensors)

array f8 [24, 4]
100.0 0.0 0.1419234149084682 -8.890307111076448 100.0 1.0 0.14010851348394535 -8.684474895126055
100.0 2.0 0.13982037914173523 -8.685826036688809 100.0 3.0 0.1418040808370286 -8.868374099147276
200.0 0.0 0.28459846397296595 -17.99830279350811 200.0 1.0 0.2842019999864774 -17.908969030282638
200.0 2.0 0.28228803918683115 -17.791730955968337 200.0 3.0 0.2840307985544278 -17.913387024217805
400.0 0.0 0.5645075071356364 -35.755209362962496 400.0 1.0 0.5623994898053915 -35.57701376873653
400.0 2.0 0.5584229215509176 -35.23834418320569 400.0 3.0 0.5631269260866636 -35.62237948220208
800.0 0.0 1.1212485582585008 -69.87470804123991 800.0 1.0 1.1213600816123324 -69.79704865646038
800.0 2.0 1.1139926392926753 -69.33176850507408 800.0 3.0 1.119083971640854 -69.49979993675758
1600.0 0.0 2.2435579560800636 -134.13813652456366 1600.0 1.0 2.2318542023898225 -132.79735744428996
1600.0 2.0 2.212563286375087 -131.45865250865327 1600.0 3.0 2.233160798965846 -132.7768160221999
3200.0 0.0 4.292001197640824 -234.9049461133207 3200.0 1.0 4.216130811900908 -228.34061839150064
3200.0 2.0 4.185857471741983 -226.2369996301509 3200.0 3.0 4.295593457145119 -235.7195457993698
00000000: 0000 0000 0000 5940 0000 0000 0000 0000
00000010: edc4 c8e4 8b2a c23f 6df0 6a55 d6c7 21c0
00000020: 0000 0000 0000 5940 0000 0000 0000 f03f
00000030: 1301 a765 13ef c13f b6ff 527e 735e 21c0
00000040: 0000 0000 0000 5940 0000 0000 0000 0040
00000050: 8231 dd59 a2e5 c13f c0a5 1c97 245f 21c0
00000060: 0000 0000 0000 5940 0000 0000 0000 0840
00000070: 4e33 d1d8 a226 c23f e10f a987 9bbc 21c0
00000080: 0000 0000 0000 6940 0000 0000 0000 0000
00000090: c45d d079 dc36 d23f 6e9f 99c5 90ff 31c0
000000a0: 0000 0000 0000 6940 0000 0000 0000 f03f
000000b0: e594 d995 5d30 d23f 0924 c231 b2e8 31c0
000000c0: 0000 0000 0000 6940 0000 0000 0000 0040
000000d0: 8300 17da 0111 d23f 651d 43e1 aeca 31c0
000000e0: 0000 0000 0000 6940 0000 0000 0000 0840
000000f0: 2646 b683 8f2d d23f 329b 65bb d3e9 31c0
00000100: 0000 0000 0000 7940 0000 0000 0000 0000
00000110: 37cf 2f0c 7210 e23f 49c7 4db3 aae0 41c0
00000120: 0000 0000 0000 7940 0000 0000 0000 f03f
00000130: 2c0a 0037 2dff e13f 5508 5196 dbc9 41c0
00000140: 0000 0000 0000 7940 0000 0000 0000 0040
00000150: 20bc 2cbf 99de e13f b707 ec0f 829e 41c0
00000160: 0000 0000 0000 7940 0000 0000 0000 0840
00000170: 5e41 61c2 2205 e23f 32e1 8021 aacf 41c0
00000180: 0000 0000 0000 8940 0000 0000 0000 0000
00000190: c284 0654 a2f0 f13f 1dab 6f37 fb77 51c0
000001a0: 0000 0000 0000 8940 0000 0000 0000 f03f
000001b0: a909 d944 17f1 f13f 5b34 5ed8 0273 51c0
000001c0: 0000 0000 0000 8940 0000 0000 0000 0040
000001d0: c0f2 1bf2 e9d2 f13f b4c8 f7b1 3b55 51c0
000001e0: 0000 0000 0000 8940 0000 0000 0000 0840
000001f0: ddcd 3a98 c4e7 f13f abba dfb8 fc5f 51c0
00000200: 0000 0000 0000 9940 0000 0000 0000 0000
00000210: 175b 8083 cef2 0140 4aec 499d 6bc4 60c0
00000220: 0000 0000 0000 9940 0000 0000 0000 f03f
00000230: b8a2 4560 d6da 0140 524e c2f3 8399 60c0
00000240: 0000 0000 0000 9940 0000 0000 0000 0040
00000250: 817d 5a61 54b3 0140 9d9c 0648 ad6e 60c0
00000260: 0000 0000 0000 9940 0000 0000 0000 0840
00000270: ec23 b268 83dd 0140 704b 46ad db98 60c0
00000280: 0000 0000 0000 a940 0000 0000 0000 0000
00000290: 6a0a a95c 022b 1140 5a2b 8d51 f55c 6dc0
000002a0: 0000 0000 0000 a940 0000 0000 0000 f03f
000002b0: dd16 4365 51dd 1040 2a7d 8a58 e68a 6cc0
000002c0: 0000 0000 0000 a940 0000 0000 0000 0040
000002d0: 7065 cb6b 51be 1040 3195 3f80 9547 6cc0
000002e0: 0000 0000 0000 a940 0000 0000 0000 0840
000002f0: 4366 1d0d b02e 1140 8f88 e984 0677 6dc0
